Accuracy 0.9789473684210527
Model REPR: TabPFNV3(
  (x_embed): Linear(in_features=6, out_features=128, bias=True)
  (col_y_encoder): TrainableOrthogonalEmbedding(
    (embedding): Embedding(160, 128)
  )
  (feature_distribution_embedder): FeatureDistributionEmbedder(
    (layers): ModuleList(
      (0-2): 3 x InducedSelfAttentionBlock(
        (cross_attn_block1): CrossAttentionBlock(
          (attn): CrossAttention(
            (softmax_scaling_layer): SoftmaxScalingMLP(
              (base_mlp): Sequential(
                (0): Linear(in_features=1, out_features=64, bias=True)
                (1): GELU(approximate='none')
                (2): Linear(in_features=64, out_features=128, bias=True)
              )
              (query_mlp): Sequential(
                (0): Linear(in_features=16, out_features=64, bias=True)
                (1): GELU(approximate='none')
                (2): Linear(in_features=64, out_features=16, bias=True)
              )
            )
            (q_projection): Linear(in_features=128, out_features=128, bias=False)
            (k_projection): Linear(in_features=128, out_features=128, bias=False)
            (v_projection): Linear(in_features=128, out_features=128, bias=False)
            (out_projection): Linear(in_features=128, out_features=128, bias=False)
          )
          (mlp): MLP(
            (0): Linear(in_features=128, out_features=256, bias=False)
            (1): GELU(approximate='none')
            (2): Linear(in_features=256, out_features=128, bias=False)
          )
          (layernorm_q): _DtypeMatchingRMSNorm((128,), eps=None, elementwise_affine=True)
          (layernorm_kv): _DtypeMatchingRMSNorm((128,), eps=None, elementwise_affine=True)
          (layernorm2): _DtypeMatchingRMSNorm((128,), eps=None, elementwise_affine=True)
        )
        (cross_attn_block2): CrossAttentionBlock(
          (attn): CrossAttention(
            (q_projection): Linear(in_features=128, out_features=128, bias=False)
            (k_projection): Linear(in_features=128, out_features=128, bias=False)
            (v_projection): Linear(in_features=128, out_features=128, bias=False)
            (out_projection): Linear(in_features=128, out_features=128, bias=False)
          )
          (mlp): MLP(
            (0): Linear(in_features=128, out_features=256, bias=False)
            (1): GELU(approximate='none')
            (2): Linear(in_features=256, out_features=128, bias=False)
          )
          (layernorm_q): _DtypeMatchingRMSNorm((128,), eps=None, elementwise_affine=True)
          (layernorm_kv): _DtypeMatchingRMSNorm((128,), eps=None, elementwise_affine=True)
          (layernorm2): _DtypeMatchingRMSNorm((128,), eps=None, elementwise_affine=True)
        )
      )
    )
  )
  (column_aggregator): ColumnAggregator(
    (blocks): ModuleList(
      (0-2): 3 x TransformerBlock(
        (attention): Attention(
          (q_projection): Linear(in_features=128, out_features=128, bias=False)
          (k_projection): Linear(in_features=128, out_features=128, bias=False)
          (v_projection): Linear(in_features=128, out_features=128, bias=False)
          (out_projection): Linear(in_features=128, out_features=128, bias=False)
        )
        (layernorm): _DtypeMatchingRMSNorm((128,), eps=None, elementwise_affine=True)
        (layernorm_mlp): _DtypeMatchingRMSNorm((128,), eps=None, elementwise_affine=True)
        (mlp): MLP(
          (0): Linear(in_features=128, out_features=256, bias=False)
          (1): GELU(approximate='none')
          (2): Linear(in_features=256, out_features=128, bias=False)
        )
      )
    )
    (rope): RotaryEmbedding()
    (out_ln): _DtypeMatchingRMSNorm((128,), eps=None, elementwise_affine=True)
  )
  (icl_y_encoder): TrainableOrthogonalEmbedding(
    (embedding): Embedding(160, 512)
  )
  (icl_blocks): ModuleList(
    (0-23): 24 x ICLTransformerBlock(
      (icl_attention): ICLAttention(
        (softmax_scaling_layer): SoftmaxScalingMLP(
          (base_mlp): Sequential(
            (0): Linear(in_features=1, out_features=64, bias=True)
            (1): GELU(approximate='none')
            (2): Linear(in_features=64, out_features=512, bias=True)
          )
          (query_mlp): Sequential(
            (0): Linear(in_features=64, out_features=64, bias=True)
            (1): GELU(approximate='none')
            (2): Linear(in_features=64, out_features=64, bias=True)
          )
        )
        (q_projection): Linear(in_features=512, out_features=512, bias=False)
        (out_projection): Linear(in_features=512, out_features=512, bias=False)
        (k_projection): Linear(in_features=512, out_features=512, bias=False)
        (v_projection): Linear(in_features=512, out_features=512, bias=False)
      )
      (layernorm): _DtypeMatchingRMSNorm((512,), eps=None, elementwise_affine=True)
      (layernorm_mlp): _DtypeMatchingRMSNorm((512,), eps=None, elementwise_affine=True)
      (mlp): MLP(
        (0): Linear(in_features=512, out_features=1024, bias=False)
        (1): GELU(approximate='none')
        (2): Linear(in_features=1024, out_features=512, bias=False)
      )
    )
  )
  (output_norm): _DtypeMatchingRMSNorm((512,), eps=None, elementwise_affine=True)
  (many_class_decoder): ManyClassDecoder(
    (q_projection): Linear(in_features=512, out_features=384, bias=True)
    (k_projection): Linear(in_features=512, out_features=384, bias=True)
    (softmax_scaling_layer): SoftmaxScalingMLP(
      (base_mlp): Sequential(
        (0): Linear(in_features=1, out_features=64, bias=True)
        (1): GELU(approximate='none')
        (2): Linear(in_features=64, out_features=384, bias=True)
      )
      (query_mlp): Sequential(
        (0): Linear(in_features=64, out_features=64, bias=True)
        (1): GELU(approximate='none')
        (2): Linear(in_features=64, out_features=64, bias=True)
      )
    )
  )
)
tabpfn version: 8.1.0
torch version: 2.13.0
GPU: none
fit_mode: fit_preprocessors
n_estimators: 8
n_estimators_: 8
inference_precision: auto
memory_saving_mode: auto
keep_cache_on_device: True
device: auto
number of loaded neural models: 1
inference config:
InferenceConfig(PREPROCESS_TRANSFORMS=[PreprocessorConfig(name='squashing_scal
…
